…
wandb: Run `wandb offline` to turn off syncing.
wandb: Syncing run my_tsp_diffusion_graph_categorical_tsp100
wandb: ⭐️ View project at https://wandb.ai/worm_tean/tsp_diffusion
wandb: 🚀 View run at https://wandb.ai/worm_tean/tsp_diffusion/runs/zy6421r7
Logging to /remote-home/share/worm_db46/wormICML2024Code/_my_dataCO/DIFCUSO_data/tsp/models/tsp_diffusion/zy6421r7
GPU available: True (cuda), used: True
TPU available: False, using: 0 TPU cores
IPU available: False, using: 0 IPUs
HPU available: False, using: 0 HPUs
----------------------------------------------------------------------------------------------------
GNNEncoder(
  (node_embed): Linear(in_features=256, out_features=256, bias=True)
  (edge_embed): Linear(in_features=256, out_features=256, bias=True)
  (pos_embed): PositionEmbeddingSine()
  (edge_pos_embed): ScalarEmbeddingSine()
  (time_embed): Sequential(
    (0): Linear(in_features=256, out_features=128, bias=True)
    (1): ReLU()
    (2): Linear(in_features=128, out_features=128, bias=True)
  )
  (out): Sequential(
    (0): GroupNorm32(32, 256, eps=1e-05, affine=True)
    (1): ReLU()
    (2): Conv2d(256, 2, kernel_size=(1, 1), stride=(1, 1))
  )
  (layers): ModuleList(
    (0): GNNLayer(
      (U): Linear(in_features=256, out_features=256, bias=True)
      (V): Linear(in_features=256, out_features=256, bias=True)
      (A): Linear(in_features=256, out_features=256, bias=True)
      (B): Linear(in_features=256, out_features=256, bias=True)
      (C): Linear(in_features=256, out_features=256, bias=True)
      (norm_h): LayerNorm((256,), eps=1e-05, elementwise_affine=True)
      (norm_e): LayerNorm((256,), eps=1e-05, elementwise_affine=True)
    )
    (1): GNNLayer(
      (U): Linear(in_features=256, out_features=256, bias=True)
      (V): Linear(in_features=256, out_features=256, bias=True)
      (A): Linear(in_features=256, out_features=256, bias=True)
      (B): Linear(in_features=256, out_features=256, bias=True)
      (C): Linear(in_features=256, out_features=256, bias=True)
      (norm_h): LayerNorm((256,), eps=1e-05, elementwise_affine=True)
      (norm_e): LayerNorm((256,), eps=1e-05, elementwise_affine=True)
    )
    (2): GNNLayer(
      (U): Linear(in_features=256, out_features=256, bias=True)
      (V): Linear(in_features=256, out_features=256, bias=True)
      (A): Linear(in_features=256, out_features=256, bias=True)
      (B): Linear(in_features=256, out_features=256, bias=True)
      (C): Linear(in_features=256, out_features=256, bias=True)
      (norm_h): LayerNorm((256,), eps=1e-05, elementwise_affine=True)
      (norm_e): LayerNorm((256,), eps=1e-05, elementwise_affine=True)
    )
    (3): GNNLayer(
      (U): Linear(in_features=256, out_features=256, bias=True)
      (V): Linear(in_features=256, out_features=256, bias=True)
      (A): Linear(in_features=256, out_features=256, bias=True)
      (B): Linear(in_features=256, out_features=256, bias=True)
      (C): Linear(in_features=256, out_features=256, bias=True)
      (norm_h): LayerNorm((256,), eps=1e-05, elementwise_affine=True)
      (norm_e): LayerNorm((256,), eps=1e-05, elementwise_affine=True)
    )
    (4): GNNLayer(
      (U): Linear(in_features=256, out_features=256, bias=True)
      (V): Linear(in_features=256, out_features=256, bias=True)
      (A): Linear(in_features=256, out_features=256, bias=True)
      (B): Linear(in_features=256, out_features=256, bias=True)
      (C): Linear(in_features=256, out_features=256, bias=True)
      (norm_h): LayerNorm((256,), eps=1e-05, elementwise_affine=True)
      (norm_e): LayerNorm((256,), eps=1e-05, elementwise_affine=True)
    )
    (5): GNNLayer(
      (U): Linear(in_features=256, out_features=256, bias=True)
      (V): Linear(in_features=256, out_features=256, bias=True)
      (A): Linear(in_features=256, out_features=256, bias=True)
      (B): Linear(in_features=256, out_features=256, bias=True)
      (C): Linear(in_features=256, out_features=256, bias=True)
      (norm_h): LayerNorm((256,), eps=1e-05, elementwise_affine=True)
      (norm_e): LayerNorm((256,), eps=1e-05, elementwise_affine=True)
    )
    (6): GNNLayer(
      (U): Linear(in_features=256, out_features=256, bias=True)
      (V): Linear(in_features=256, out_features=256, bias=True)
      (A): Linear(in_features=256, out_features=256, bias=True)
      (B): Linear(in_features=256, out_features=256, bias=True)
      (C): Linear(in_features=256, out_features=256, bias=True)
      (norm_h): LayerNorm((256,), eps=1e-05, elementwise_affine=True)
      (norm_e): LayerNorm((256,), eps=1e-05, elementwise_affine=True)
    )
    (7): GNNLayer(
      (U): Linear(in_features=256, out_features=256, bias=True)
      (V): Linear(in_features=256, out_features=256, bias=True)
      (A): Linear(in_features=256, out_features=256, bias=True)
      (B): Linear(in_features=256, out_features=256, bias=True)
      (C): Linear(in_features=256, out_features=256, bias=True)
      (norm_h): LayerNorm((256,), eps=1e-05, elementwise_affine=True)
      (norm_e): LayerNorm((256,), eps=1e-05, elementwise_affine=True)
    )
    (8): GNNLayer(
      (U): Linear(in_features=256, out_features=256, bias=True)
      (V): Linear(in_features=256, out_features=256, bias=True)
      (A): Linear(in_features=256, out_features=256, bias=True)
      (B): Linear(in_features=256, out_features=256, bias=True)
      (C): Linear(in_features=256, out_features=256, bias=True)
      (norm_h): LayerNorm((256,), eps=1e-05, elementwise_affine=True)
      (norm_e): LayerNorm((256,), eps=1e-05, elementwise_affine=True)
    )
    (9): GNNLayer(
      (U): Linear(in_features=256, out_features=256, bias=True)
      (V): Linear(in_features=256, out_features=256, bias=True)
      (A): Linear(in_features=256, out_features=256, bias=True)
      (B): Linear(in_features=256, out_features=256, bias=True)
      (C): Linear(in_features=256, out_features=256, bias=True)
      (norm_h): LayerNorm((256,), eps=1e-05, elementwise_affine=True)
      (norm_e): LayerNorm((256,), eps=1e-05, elementwise_affine=True)
    )
    (10): GNNLayer(
      (U): Linear(in_features=256, out_features=256, bias=True)
      (V): Linear(in_features=256, out_features=256, bias=True)
      (A): Linear(in_features=256, out_features=256, bias=True)
      (B): Linear(in_features=256, out_features=256, bias=True)
      (C): Linear(in_features=256, out_features=256, bias=True)
      (norm_h): LayerNorm((256,), eps=1e-05, elementwise_affine=True)
      (norm_e): LayerNorm((256,), eps=1e-05, elementwise_affine=True)
    )
    (11): GNNLayer(
      (U): Linear(in_features=256, out_features=256, bias=True)
      (V): Linear(in_features=256, out_features=256, bias=True)
      (A): Linear(in_features=256, out_features=256, bias=True)
      (B): Linear(in_features=256, out_features=256, bias=True)
      (C): Linear(in_features=256, out_features=256, bias=True)
      (norm_h): LayerNorm((256,), eps=1e-05, elementwise_affine=True)
      (norm_e): LayerNorm((256,), eps=1e-05, elementwise_affine=True)
    )
  )
  (time_embed_layers): ModuleList(
    (0): Sequential(
      (0): ReLU()
      (1): Linear(in_features=128, out_features=256, bias=True)
    )
    (1): Sequential(
      (0): ReLU()
      (1): Linear(in_features=128, out_features=256, bias=True)
    )
    (2): Sequential(
      (0): ReLU()
      (1): Linear(in_features=128, out_features=256, bias=True)
    )
    (3): Sequential(
      (0): ReLU()
      (1): Linear(in_features=128, out_features=256, bias=True)
    )
    (4): Sequential(
      (0): ReLU()
      (1): Linear(in_features=128, out_features=256, bias=True)
    )
    (5): Sequential(
      (0): ReLU()
      (1): Linear(in_features=128, out_features=256, bias=True)
    )
    (6): Sequential(
      (0): ReLU()
      (1): Linear(in_features=128, out_features=256, bias=True)
    )
    (7): Sequential(
      (0): ReLU()
      (1): Linear(in_features=128, out_features=256, bias=True)
    )
    (8): Sequential(
      (0): ReLU()
      (1): Linear(in_features=128, out_features=256, bias=True)
    )
    (9): Sequential(
      (0): ReLU()
      (1): Linear(in_features=128, out_features=256, bias=True)
    )
    (10): Sequential(
      (0): ReLU()
      (1): Linear(in_features=128, out_features=256, bias=True)
    )
    (11): Sequential(
      (0): ReLU()
      (1): Linear(in_features=128, out_features=256, bias=True)
    )
  )
  (per_layer_out): ModuleList(
    (0): Sequential(
      (0): LayerNorm((256,), eps=1e-05, elementwise_affine=True)
      (1): SiLU()
      (2): Linear(in_features=256, out_features=256, bias=True)
    )
    (1): Sequential(
      (0): LayerNorm((256,), eps=1e-05, elementwise_affine=True)
      (1): SiLU()
      (2): Linear(in_features=256, out_features=256, bias=True)
    )
    (2): Sequential(
      (0): LayerNorm((256,), eps=1e-05, elementwise_affine=True)
      (1): SiLU()
      (2): Linear(in_features=256, out_features=256, bias=True)
    )
    (3): Sequential(
      (0): LayerNorm((256,), eps=1e-05, elementwise_affine=True)
      (1): SiLU()
      (2): Linear(in_features=256, out_features=256, bias=True)
    )
    (4): Sequential(
      (0): LayerNorm((256,), eps=1e-05, elementwise_affine=True)
      (1): SiLU()
      (2): Linear(in_features=256, out_features=256, bias=True)
    )
    (5): Sequential(
      (0): LayerNorm((256,), eps=1e-05, elementwise_affine=True)
      (1): SiLU()
      (2): Linear(in_features=256, out_features=256, bias=True)
    )
    (6): Sequential(
      (0): LayerNorm((256,), eps=1e-05, elementwise_affine=True)
      (1): SiLU()
      (2): Linear(in_features=256, out_features=256, bias=True)
    )
    (7): Sequential(
      (0): LayerNorm((256,), eps=1e-05, elementwise_affine=True)
      (1): SiLU()
      (2): Linear(in_features=256, out_features=256, bias=True)
    )
    (8): Sequential(
      (0): LayerNorm((256,), eps=1e-05, elementwise_affine=True)
      (1): SiLU()
      (2): Linear(in_features=256, out_features=256, bias=True)
    )
    (9): Sequential(
      (0): LayerNorm((256,), eps=1e-05, elementwise_affine=True)
      (1): SiLU()
      (2): Linear(in_features=256, out_features=256, bias=True)
    )
    (10): Sequential(
      (0): LayerNorm((256,), eps=1e-05, elementwise_affine=True)
      (1): SiLU()
      (2): Linear(in_features=256, out_features=256, bias=True)
    )
    (11): Sequential(
      (0): LayerNorm((256,), eps=1e-05, elementwise_affine=True)
      (1): SiLU()
      (2): Linear(in_features=256, out_features=256, bias=True)
    )
  )
)
----------------------------------------------------------------------------------------------------

Initializing distributed: GLOBAL_RANK: 0, MEMBER: 1/8
Initializing distributed: GLOBAL_RANK: 2, MEMBER: 3/8
Initializing distributed: GLOBAL_RANK: 6, MEMBER: 7/8
Initializing distributed: GLOBAL_RANK: 1, MEMBER: 2/8
Initializing distributed: GLOBAL_RANK: 4, MEMBER: 5/8
…
